…
        activation='softmax',
        kernel_constraint=max_norm(0.25),
        name='classifier',
    )(x)

    model = Model(inputs, outputs, name='EEGNet')
    return model


# Infer n_times from loaded data
n_times = X_ready.shape[-1]
model   = build_eegnet(N_CHANNELS, n_times, N_CLASSES, SFREQ)
model.summary()

--- OUTPUT ---
Model: "EEGNet"

+-----------------------------------+------------------------+---------------+
| Layer (type)                      | Output Shape           |       Param # |
+===================================+========================+===============+
| eeg_input (InputLayer)            | (None, 1, 22, 1001)   |             0 |
+-----------------------------------+------------------------+---------------+
| temporal_conv (Conv2D)            | (None, 8, 22, 1001)   |         1,000 |
+-----------------------------------+------------------------+---------------+
| batch_normalization               | (None, 8, 22, 1001)   |            32 |
| (BatchNormalization)              |                        |               |
+-----------------------------------+------------------------+---------------+
| spatial_conv (DepthwiseConv2D)    | (None, 16, 1, 1001)   |           352 |
+-----------------------------------+------------------------+---------------+
| batch_normalization               | (None, 16, 1, 1001)   |            64 |
| (BatchNormalization)              |                        |               |
+-----------------------------------+------------------------+---------------+
| activation (Activation)           | (None, 16, 1, 1001)   |             0 |
+-----------------------------------+------------------------+---------------+
| average_pooling2d                 | (None, 16, 1, 250)    |             0 |
| (AveragePooling2D)                |                        |               |
+-----------------------------------+------------------------+---------------+
| dropout (Dropout)                 | (None, 16, 1, 250)    |             0 |
+-----------------------------------+------------------------+---------------+
| separable_conv                    | (None, 16, 1, 250)    |           512 |
| (SeparableConv2D)                 |                        |               |
+-----------------------------------+------------------------+---------------+
| batch_normalization               | (None, 16, 1, 250)    |            64 |
| (BatchNormalization)              |                        |               |
+-----------------------------------+------------------------+---------------+
| activation (Activation)           | (None, 16, 1, 250)    |             0 |
+-----------------------------------+------------------------+---------------+
| average_pooling2d                 | (None, 16, 1, 31)     |             0 |
| (AveragePooling2D)                |                        |               |
+-----------------------------------+------------------------+---------------+
| dropout (Dropout)                 | (None, 16, 1, 31)     |             0 |
+-----------------------------------+------------------------+---------------+
| flatten (Flatten)                 | (None, 496)            |             0 |
+-----------------------------------+------------------------+---------------+
| classifier (Dense)                | (None, 4)              |         1,988 |
+-----------------------------------+------------------------+---------------+

 Total params: 4,012 (15.67 KB)
 Trainable params: 3,932 (15.36 KB)
 Non-trainable params: 80 (320.00 B)


################################################################################
## CELL 12 [MARKDOWN]
################################################################################

## 5. Training -- Within-Subject (Subject 1)
…
